Models/deep_svdd.pth (torch, 421489 bytes, 4 tensors)

encoder.0.weight f4 [128, 785]
0	0xbbe51126	-0.0069905696
1	0xbc81b200	-0.015831947
2	0x3b8b0e0f	0.0042436193
3	0xb8e71975	-0.0001101968
4	0x3c939b73	0.01801846
5	0xbc78499a	-0.015154267
6	0x3cb8ff95	0.022582809
7	0x3b8da970	0.004323177
8	0x3c0958a4	0.00838295
9	0x3d0465f4	0.032323793
10	0xbc62f0b4	-0.013851333
11	0x3b8c100d	0.0042743743
12	0xbcc05e74	-0.023482539
13	0x3d04366c	0.032278463
14	0x3c0329ac	0.008005541
15	0x3c0d3a51	0.008619861
16	0xbbb80c03	-0.0056166663
17	0x3be2ffd8	0.0069274716
18	0xbd039fd2	-0.03213484
19	0x3c428849	0.011873313
20	0x3b5d83d7	0.0033800506
21	0xbc2f1e0e	-0.010688318
22	0x3ab6c66a	0.001394463
23	0x3ca630d2	0.020286951
24	0xbbb75a3f	-0.005595475
25	0x3cfcadec	0.030844651
26	0x3cb7e48d	0.022447849
27	0xbc22f1a3	-0.009945306
28	0x3ce1c3ca	0.02755918
29	0x3c9001ba	0.017578948
30	0xbb375b32	-0.002797794
31	0xbbb6d49a	-0.0055795433
32	0xbba8786b	-0.005141308
33	0x3c8664d1	0.016405495
34	0xbc0d7620	-0.00863412
35	0x3c20aadb	0.00980636
36	0x3bc4c4a8	0.0060048886
37	0xbc348936	-0.011019042
38	0x3cc54f5d	0.024085695
39	0x3c219472	0.009862052
40	0xbb69465b	-0.0035594914
41	0x3c948b4c	0.018132828
42	0x3b3a70e7	0.0028448643
43	0x3cf47f93	0.029845988
44	0x3caf7f31	0.021422954
45	0x3b5ee253	0.0034009411
46	0xbc7b4665	-0.015336608
47	0x3c942962	0.01808614
48	0x3c97d0ad	0.018532122
49	0x3adacae0	0.0016692542
50	0x3c04f1dd	0.008114305
51	0x3ccd2396	0.025041383
52	0x3bded5ce	0.00680039
53	0xbc6fc878	-0.014635198
54	0x3cbdbbf1	0.023160907
55	0x3be335a1	0.0069338833
56	0xbc72f745	-0.014829461
57	0x3be22519	0.006901395
58	0x3b50b98e	0.003184888
59	0x3b906eba	0.004407731
60	0x3cbfea2e	0.023427095
61	0xbc065b2a	-0.008200446
62	0x3c98ee3d	0.018668288
63	0x3cf8859d	0.03033715
64	0x3c264659	0.010148608
65	0xbd04d04d	-0.032425214
66	0x3ba8bf4e	0.0051497584
67	0x3c780466	0.015137767
68	0xbcc22d7b	-0.023703327
69	0x3c5c422c	0.013443511
70	0x3c10f8c8	0.008848377
71	0xbd236ccc	-0.03989868
72	0xbc082fbf	-0.008312165
73	0xbccbd25b	-0.024880579
74	0x3ca408d7	0.020023746
75	0x3b1e2573	0.0024131208
76	0x3cc0468b	0.023471138
77	0xbc9a2b16	-0.018819373
78	0xbce3f520	-0.027826846
79	0x3c91996c	0.017773353
80	0x3aec3340	0.0018020645
81	0xbc19561b	-0.009358908
82	0x3b229240	0.002480641
83	0x3cd6dc3d	0.026228065
84	0xbbf940af	-0.007606588
85	0x3cdddc19	0.02708249
86	0x3c3b2daa	0.011424461
87	0x3c7ba54c	0.015359234
88	0xbcdb224c	-0.026749752
89	0x3cb9282d	0.022602165
90	0xbc2b3361	-0.010449261
91	0x3c9f34e0	0.019434392
92	0xbc135782	-0.008993031
93	0x3c85df3a	0.016341794
94	0xbc808146	-0.015686642
95	0xbb4e1e8c	-0.0031451313
96	0xbc3eba65	-0.01164112
97	0x3cd71195	0.026253501
98	0x3b7d876a	0.003868545
99	0xbc8383f7	-0.016054137
100	0xbc7645bd	-0.015031275
101	0xbcd9fc55	-0.02660958
102	0x3c5a0c1c	0.013308551
103	0x3c8edafe	0.017438408
104	0xbc9a9e0e	-0.018874194
105	0xbc99c014	-0.018768348
106	0xbb786cd4	-0.0037906663
107	0x3bda9a9f	0.0066712643
108	0x3cc894b0	0.024484962
109	0x3cf3cbf6	0.029760342
110	0x3aea14e6	0.0017859011
111	0x3b29e0f5	0.0025921438
112	0x3b7021a2	0.003664114
113	0x3c579551	0.013158158
114	0x3c48659f	0.01223126
115	0x3ca02a4a	0.019551415
116	0x3d0646f0	0.032782495
117	0x3c95df8b	0.01829507
118	0x3cd44013	0.02590946
119	0x3b8f81b2	0.0043794746
120	0xbc8d5266	-0.017251205
121	0x3b7d2800	0.0038628578
122	0x3cbb690c	0.022877239
123	0x39e25783	0.0004317128
124	0xbb4873a8	-0.0030586515
125	0xbb906ceb	-0.0044075153
126	0x3c94c98b	0.01816251
127	0x3bf0a811	0.007344254
128	0x3c7c9e69	0.015418627
129	0x3cfef00a	0.031120319
130	0xbc9f7695	-0.019465724
131	0x3c77628e	0.015099181
132	0xbcade904	-0.021229275
133	0xbcbc3c78	-0.022978052
134	0xbcb9c218	-0.022675559
135	0x3ca5541d	0.02018171
136	0x3d0813d9	0.033222053
137	0x3d028883	0.03186847
138	0xbc42af60	-0.011882633
139	0x3bfccedf	0.0077150906
140	0x3c2f5bef	0.010703071
141	0x3d0cb8d8	0.03435597
142	0x3b1f783d	0.0024333142
143	0x3c9545a1	0.018221678
144	0x3c93f3db	0.018060615
145	0x3c3c8272	0.01150571
146	0xbd05eae8	-0.032694727
147	0x3c9ded90	0.019278318
148	0x3c94c25d	0.018159086
149	0x3c9ce0cf	0.019150166
150	0xbc2d21bb	-0.010567124
151	0x3d08b945	0.03337981
152	0xbca0c4f9	-0.019625174
153	0x3cfad896	0.030620854
154	0xbc848d54	-0.016180672
155	0xbceb8773	-0.02875111
156	0xbbe01fa3	-0.006839709
157	0xbb822012	-0.0039711082
158	0x3c0c4ae7	0.00856278
159	0xbc8c0896	-0.017093938
160	0xbc75b5f6	-0.014996996
161	0x3cefc4f5	0.029268721
162	0x3cc26bca	0.023733038
163	0xbb423b7d	-0.0029637509
164	0xbc761167	-0.0150187975
165	0x3be0d1e3	0.006860958
166	0x3b26f36a	0.0025474676
167	0x3badc745	0.005303296
168	0xbc55b39b	-0.01304331
169	0xbc1aede3	-0.009456131
170	0xbce370a8	-0.02776368
171	0x3cc3b13e	0.023888227
172	0x3a39e039	0.0007090602
173	0x3c246a8a	0.0100351665
174	0xbcc232d7	-0.023705883
175	0x3b673150	0.0035277195
176	0x3ba1d35b	0.0049385256
177	0xbb421063	-0.0029611818
178	0xbcdc3b2f	-0.02688369
179	0xbd0163b4	-0.031589225
180	0x3b7a7473	0.0038216382
181	0xbcae1f62	-0.021255199
182	0x3c8f7dda	0.017516065
183	0x3bc615f6	0.0060450984
184	0x3c8759f2	0.016522381
185	0x3bfdeaf3	0.0077489554
186	0xbc18bed6	-0.009322843
187	0x3c1662f4	0.009178866
188	0xbc184dcb	-0.009295891
189	0xbc9f9b9f	-0.019483386
190	0x3c14bf31	0.009078787
191	0x3c0b2abe	0.008494077
192	0x3ce32193	0.02772597
193	0x3cf8e127	0.030380799
194	0x3c0a037d	0.008423683
195	0xbc9dfdf2	-0.01928613
196	0x3b5e99ae	0.0033966112
197	0x3c3ead98	0.011638068
198	0x3c5293b6	0.0128526
199	0xbc58e283	-0.013237598
200	0xbc2747d0	-0.0102099925
201	0x3b9a2822	0.0047044912
202	0xbb9ff020	-0.00488092
203	0xbc92a3d0	-0.017900378
204	0x3c260203	0.010132316
205	0x3c76fdf3	0.015075195
206	0x3cb5c776	0.022189837
207	0x3c6921c9	0.014229246
208	0x3c04f54e	0.008115126
209	0x3aaef21d	0.0013347302
210	0xbc8e79db	-0.01739209
211	0xbb6bd6af	-0.0035986116
212	0xbc9b5deb	-0.018965682
213	0x3c10b027	0.0088310605
214	0xbc458eae	-0.012057943
215	0x3b90d1b1	0.0044195284
216	0x38bb841e	8.9414636e-05
217	0xbb191678	-0.002335934
218	0x3cc1c453	0.023653185
219	0x3ca01785	0.019542465
220	0x3d06fad9	0.03295407
221	0x3c907568	0.017634109
222	0x3c7c8819	0.015413308
223	0xbc8fc3e7	-0.017549468
224	0x3d23e385	0.0400119
225	0xbcc064d3	-0.023485577
226	0x3c4233bd	0.011853156
227	0x3d0a68a2	0.033791192
228	0xbc833165	-0.016014764
229	0xbcb7081d	-0.022342736
230	0x3ca51437	0.02015124
231	0xbd016cfd	-0.03159808
232	0x3c6b4951	0.014360742
233	0x3b928328	0.0044712014
234	0x3cb2c1f4	0.021821
235	0x3c82c2bd	0.015962
236	0x3cade9a0	0.021229565
237	0xbbdccfb6	-0.0067386283
238	0xbca8030d	-0.020509267
239	0x3b8f0e30	0.004365705
240	0x3cc7a37a	0.024369944
241	0x3cc1dbfb	0.023664465
242	0xbca4b518	-0.020105883
243	0x39b34e3a	0.00034199824
244	0xbcaec0ff	-0.021332262
245	0x3c982eaa	0.018576939
246	0xbc367044	-0.011135165
247	0x3c650a70	0.013979539
248	0xbcd9a6f0	-0.02656886
249	0x3b99049a	0.004669738
250	0xbb9cb1fa	-0.0047819586
251	0xbc56d76a	-0.013112882
252	0xbc85f3a5	-0.01635153
253	0x3c76f72a	0.015073577
254	0xbb6bb7bb	-0.0035967666
255	0xbc8e9952	-0.017407093

encoder.0.bias f4 [128]
0	0xbd071e09	-0.032987628
1	0xbbdc29ac	-0.006718835
2	0xbd875ae6	-0.066091344
3	0xbd355db4	-0.044278815
4	0xbd0ddc40	-0.034633875
5	0xbd2eb8fe	-0.04265689
6	0xbd8292c0	-0.063756466
7	0xbd123470	-0.03569454
8	0xbd789e73	-0.060697984
9	0xbd192263	-0.03738631
10	0xbda5ae9f	-0.08089947
11	0xbcea7da0	-0.028624356
12	0xbd8b72fa	-0.068090394
13	0xbdacc78d	-0.08436499
14	0xbd5181af	-0.051149067
15	0xbd8f4efc	-0.06997487
16	0xbc5a77f5	-0.013334264
17	0xbda0d50b	-0.07853135
18	0xbd291454	-0.041279152
19	0xbb7b3c70	-0.0038335584
20	0xbd40b581	-0.047048096
21	0xbc97de3d	-0.018538589
22	0xbbf74b16	-0.0075467927
23	0xbcba1a5e	-0.022717651
24	0xbd10c2e5	-0.035342116
25	0xbd72c19f	-0.059266683
26	0x3b3f7e2b	0.002921949
27	0xbdbadf5c	-0.09124634
28	0xbce48b5c	-0.027898483
29	0xbd938c3a	-0.072044805
30	0xbd447738	-0.04796526
31	0xbca53644	-0.020167477
32	0xbce17329	-0.027520733
33	0xbc65e5fe	-0.014031885
34	0xbaa80de2	-0.001282152
35	0xbc9ace78	-0.01889728
36	0xbd70c7a2	-0.058784135
37	0xbd839d00	-0.0642643
38	0xbdae6412	-0.08515181
39	0xbce6f98c	-0.028195165
40	0xbc622d85	-0.013804798
41	0xbcfccc1f	-0.030859051
42	0xbc9ac1ba	-0.018891204
43	0xbda42417	-0.08014696
44	0xbd5f2ec7	-0.05448797
45	0xbd3b829a	-0.04577885
46	0xbdc1b4d5	-0.09458319
47	0xbd6d15bc	-0.057882056
48	0xbd0c4db3	-0.034253787
49	0xbb25e323	-0.0025312386
50	0xbd742824	-0.059608594
51	0xbccddb47	-0.025128974
52	0xbd8ae8a9	-0.06782658
53	0xbd879c48	-0.06621605
54	0xbc30b3da	-0.010785067
55	0xbc89f1cd	-0.016838932
56	0xbd1918ab	-0.03737704
57	0xbdb31a96	-0.08745305
58	0xbd29582f	-0.041343864
59	0xbd539af5	-0.05166145
60	0xbd79cb07	-0.060984638
61	0xbd47a376	-0.048739873
62	0xbd83a947	-0.064287715
63	0xbd4339f2	-0.047662683
64	0xbd9866f1	-0.074415095
65	0xbd2bdff9	-0.041961644
66	0xbd1cdc25	-0.038295884
67	0xbc92b07a	-0.017906416
68	0xbd5db70b	-0.05412964
69	0xbd960dc0	-0.07326841
70	0xbd737ef7	-0.059447255
71	0xbd7040b4	-0.058655456
72	0xbd0ea171	-0.03482193
73	0xbd5815e3	-0.052755248
74	0xbd4e3f8d	-0.050353575
75	0xbcf3e96b	-0.029774388
76	0xbd1c4be6	-0.03815832
77	0xbcbeefe2	-0.023307744
78	0xbd473f66	-0.048644446
79	0xbd5676f0	-0.05235952
80	0xbdac585b	-0.0841529
81	0xbd333f2c	-0.043761417
82	0xbd5537e9	-0.052055273
83	0xbcb452e7	-0.022012187
84	0xbd98b0fa	-0.074556306
85	0xbd925773	-0.07145586
86	0xbd798213	-0.060915064
87	0xbd37df78	-0.04489085
88	0xbd41a49c	-0.047276124
89	0x3ac773a5	0.001521696
90	0xbd9a4070	-0.07531822
91	0xbd644126	-0.055726193
92	0xbd56d044	-0.05244471
93	0xbd249e23	-0.040189873
94	0xbd2036f7	-0.03911492
95	0xbc62f631	-0.013852642
96	0xbd8948ad	-0.06703315
97	0xbd1adb2f	-0.037806686
98	0xbdaa63aa	-0.08319791
99	0xbda5e0ac	-0.080994934
100	0xbd462be0	-0.048381686
101	0xbd91cd5d	-0.07119248
102	0xbcae31c1	-0.021263959
103	0xbdabaabf	-0.083821766
104	0xbda1bf0e	-0.07897769
105	0xbd33ea9c	-0.043924913
106	0xbd937a16	-0.072010204
107	0xbdafc2e6	-0.08582096
108	0xbd834cd6	-0.0641114
109	0xbd72a06d	-0.059235025
110	0xbd4ba8c5	-0.049721498
111	0xbd16d88b	-0.036827605
112	0xbbdef9a3	-0.0068046614
113	0xbd1de2e8	-0.038546473
114	0xbcd65f8a	-0.026168603
115	0xbca8fe8a	-0.020629186
116	0xbd6542a4	-0.055971757
117	0xbcf26cbf	-0.02959287
118	0xbcf5b7ab	-0.029994806
119	0xbce9afea	-0.028526265
120	0xbd26ac0b	-0.040691417
121	0xbdb7fe9d	-0.089841105
122	0xbd2683f8	-0.0406532
123	0xbdc58344	-0.096441776
124	0xbd11f5a3	-0.035634648
125	0x3bfbd5b0	0.0076853856
126	0xbd8a22b7	-0.067449026
127	0xbd0ac9d7	-0.033883896

encoder.2.weight f4 [32, 128]
0	0x3c8c08de	0.017094072
1	0xbc12b574	-0.008954395
2	0x393d1768	0.00018033164
3	0xbc97b4fa	-0.018518914
4	0xbbd47d03	-0.006484629
5	0xbcec47cf	-0.028842835
6	0xb99d311d	-0.00029981966
7	0xbd0d7742	-0.03453756
8	0xb918591b	-0.00014529044
9	0x3c27634d	0.010216546
10	0xbc711f4d	-0.014716935
11	0x3c4b87fd	0.012422559
12	0xbbbaf553	-0.0057055145
13	0xbad04a81	-0.0015891345
14	0xbcc358cf	-0.023846058
15	0xbb43f237	-0.002989901
16	0xbb715857	-0.0036826336
17	0xbca020fd	-0.01954698
18	0xbb272cf5	-0.0025508974
19	0xbb1b6ca8	-0.0023715887
20	0xbb007571	-0.001960125
21	0xbc19b870	-0.009382352
22	0xbc5fec1e	-0.013667135
23	0xbb6c8101	-0.0036087635
24	0x3c95ae05	0.018271456
25	0x3cbe1301	0.023202421
26	0xbb382206	-0.0028096451
27	0xbccd7f6f	-0.02508518
28	0x3c8c0ab8	0.017094955
29	0x39aabc6c	0.00032565312
30	0x3b749c45	0.003732459
31	0x3c61f332	0.013790892
32	0x3c77b64b	0.015119146
33	0xba1d1634	-0.0005992383
34	0xbb0c9aee	-0.002145465
35	0x3cc5ad19	0.024130391
36	0x3c9a8e4a	0.018866677
37	0xbc34e9d8	-0.011042081
38	0xbace7e8e	-0.0015754269
39	0x3c150311	0.009094969
40	0x3c663809	0.014051446
41	0xbafec77c	-0.0019438113
42	0xbb262e24	-0.0025357092
43	0x3b963705	0.0045841956
44	0x3b9fe20b	0.0048792413
45	0xbbab8dbf	-0.0052354033
46	0xba80f732	-0.0009839295
47	0xbc7d99ea	-0.0154785905
48	0xbbc4eb23	-0.006009476
49	0x3c994d15	0.018713513
50	0x3c6f1dae	0.0145944785
51	0x3cad301f	0.02114111
52	0x3c8cdb5c	0.017194442
53	0x3b8df36a	0.0043319957
54	0xbc9e0e97	-0.019294066
55	0x3c747fb7	0.014923028
56	0x3b57dd5d	0.003293834
57	0x3a38ec3d	0.0007054245
58	0x3c8d97ec	0.017284356
59	0xbc5ce9f9	-0.013483518
60	0xbb02a3d9	-0.0019934087
61	0xbc904719	-0.017612027
62	0x3aa07328	0.001224135
63	0x3cba645a	0.02275293
64	0xba943830	-0.0011308249
65	0xbc410acb	-0.011782358
66	0xbbefb18a	-0.0073148655
67	0xbb861ecb	-0.0040930263
68	0x3bb9cdc6	0.005670282
69	0x3c4653ab	0.012104909
70	0xbbea9cab	-0.0071597896
71	0x3ce15200	0.027504921
72	0xbc0a197e	-0.008428929
73	0x3c3ba06b	0.011451821
74	0xbc9d1fe4	-0.019180246
75	0x3c9da219	0.019242333
76	0xbcfaaa95	-0.030598918
77	0xbc1ae2c9	-0.009453484
78	0x3d1dbdce	0.03851109
79	0x3c969aa4	0.018384285
80	0x3c3a973d	0.011388597
81	0x3caad8fd	0.020855421
82	0x3cb79d1a	0.022413779
83	0x3ba297a2	0.0049619237
84	0xbb265550	-0.002538044
85	0x3bb58f50	0.005540766
86	0xbc8418a4	-0.01612503
87	0x3c74a698	0.014932297
88	0xbc18f0f9	-0.009334796
89	0xbb3969b3	-0.0028291761
90	0x3c21ad96	0.009868046
91	0xbc89bc53	-0.016813433
92	0x3c19979a	0.009374524
93	0x3c8f975f	0.017528234
94	0x3c5cfd64	0.013488147
95	0x3caa45c1	0.020785214
96	0x3c9b989a	0.018993665
97	0xbbd4b6f5	-0.0064915367
98	0x3c69ee47	0.014278001
99	0x3cc68081	0.024231197
100	0x3c109d6e	0.008826597
101	0x3c3184ec	0.010834914
102	0xbc1f3b94	-0.009718794
103	0x3cf17a83	0.029477363
104	0xba23e6c1	-0.00062523416
105	0x3c840a13	0.016118085
106	0x3af72eb1	0.001885852
107	0xbc4bf582	-0.01244867
108	0xbc881069	-0.016609387
109	0x3cf5b4c3	0.02999342
110	0xbc2eb054	-0.010662157
111	0x38d8eb3a	0.00010343497
112	0x3c8ec7a3	0.017429179
113	0x3b86368b	0.0040958575
114	0x3ca40abf	0.020024655
115	0x3d1c9e0b	0.03823666
116	0xbcc9941e	-0.02460676
117	0x3c6cc390	0.014450923
118	0xbcb05763	-0.021526044
119	0x39b5893e	0.00034625264
120	0xbcb01967	-0.021496488
121	0xbce5bb72	-0.028043482
122	0x3c528ec2	0.012851419
123	0xbcef9833	-0.029247379
124	0x3c8216e8	0.015880063
125	0xbba08379	-0.0048984853
126	0x3cbc3c25	0.022977898
127	0x3c8830cd	0.016624833
128	0xbc81cea9	-0.015845614
129	0xbc2ab0c8	-0.0104181245
130	0x3b23a1d2	0.0024968279
131	0xbbfd844e	-0.007736719
132	0xbc53b588	-0.012921698
133	0x3b811b25	0.0039400035
134	0xbcd48a97	-0.025944991
135	0xbc785825	-0.015157734
136	0xbcc04bf5	-0.02347372
137	0x3ae5c0b5	0.0017528745
138	0x3ba3af7c	0.0049952846
139	0xbc36aa69	-0.011149027
140	0xbc2925f0	-0.010323986
141	0x3bef279d	0.0072984234
142	0xbc607ee5	-0.013702129
143	0xbcb4d68b	-0.022074958
144	0xbb82b69f	-0.0039890553
145	0x3a77014d	0.0009422496
146	0x3aaed56c	0.0013338751
147	0xbc2de054	-0.010612566
148	0xbcdda77c	-0.027057402
149	0xbbd36cc8	-0.0064521767
150	0xbc86d3cb	-0.016458413
151	0xbc6258ee	-0.013815148
152	0x3bc67968	0.006056953
153	0xbcb9ca21	-0.02267939
154	0xbccddf62	-0.025130931
155	0xbb7052ea	-0.0036670514
156	0x3c0e2014	0.00867464
157	0x399519bf	0.00028438677
158	0x3bb2cfb4	0.005456889
159	0xbcac1110	-0.02100423
160	0xbcd196e6	-0.02558465
161	0xbbc52ab0	-0.0060170516
162	0xbceacac2	-0.028661136
163	0xbc8a5254	-0.01688496
164	0xbc749317	-0.014927647
165	0xbc73a5c2	-0.014871063
166	0xbc531db1	-0.012885497
167	0xbc0ffef0	-0.008788809
168	0xbc926abe	-0.017873164
169	0x3c304338	0.010758214
170	0xbcadefb3	-0.021232462
171	0xbc23c5aa	-0.009995857
172	0xbce3a44a	-0.0277883
173	0x3c660330	0.014038846
174	0x3ce80b94	0.028325833
175	0xbaa81a6b	-0.0012825256
176	0x3b3e8b0e	0.0029074582
177	0xbccec04e	-0.025238182
178	0xbcf7daaa	-0.030255634
179	0xbca86c0a	-0.02055933
180	0xbac97fe7	-0.0015373201
181	0xbc7debf0	-0.015498146
182	0xbbaf2fa2	-0.0053462544
183	0xbca25d5e	-0.019819912
184	0xbc7fc0bd	-0.015609917
185	0x3cc43acd	0.02395382
186	0xbc1c4c59	-0.009539687
187	0x3c583610	0.013196483
188	0xbc195461	-0.009358496
189	0x3c8f1899	0.017467784
190	0xbc94f44a	-0.018182892
191	0xbc59cea1	-0.013293893
192	0xbc8f0eaa	-0.017463047
193	0xbce57086	-0.028007757
194	0xbcea80ca	-0.028625865
195	0xbcad824e	-0.021180298
196	0x3ab9774f	0.0014149937
197	0xbc348656	-0.011018356
198	0xbc845b7e	-0.016156908
199	0xbcea3adb	-0.028592518
200	0xbcfeeded	-0.031119311
201	0xbc6c28e7	-0.014414049
202	0xbb050224	-0.0020295465
203	0xbcaee16b	-0.021347722
204	0x3bbf2a58	0.005833905
205	0xbb69d7a6	-0.0035681515
206	0xbc27ea5c	-0.010248747
207	0xbc8d4329	-0.017243939
208	0x3b3d0495	0.0028841842
209	0xbcdb6435	-0.02678118
210	0xbc93d3d2	-0.01804534
211	0xbc531d3f	-0.012885391
212	0xbc6e48b8	-0.014543705
213	0x3bab16bd	0.0052212165
214	0xbc17b1e7	-0.009258724
215	0xbb4cc2df	-0.0031244082
216	0xbb5456ff	-0.0032400487
217	0xbc088321	-0.008332045
218	0xbceaf831	-0.0286828
219	0x3b7470f8	0.003729878
220	0xbc83947e	-0.016062018
221	0x3c4fe508	0.012688883
222	0x3b56ffa2	0.0032806178
223	0xbbc317a7	-0.0059537473
224	0xbc961f0f	-0.018325357
225	0xbc60091f	-0.01367405
226	0xbccd6a05	-0.025074968
227	0xbcafcb27	-0.021459175
228	0xbc7a5531	-0.0152791
229	0xbc2b727a	-0.010464305
230	0x3affdcb4	0.0019520731
231	0x3ae725f9	0.0017635218
232	0xbca11d8b	-0.019667407
233	0xbcef815b	-0.029236486
234	0xbc48a481	-0.012246252
235	0x3b9bf686	0.0047596125
236	0x3bde58dc	0.006785495
237	0xbc7c2ef3	-0.015392053
238	0xbc8037f1	-0.015651675
239	0xbc48ee05	-0.0122637795
240	0xbd02589e	-0.031822793
241	0xb9f37bca	-0.00046440802
242	0xbb3ce06d	-0.0028820292
243	0xbbe19eec	-0.0068854
244	0x3c7f0c37	0.015566877
245	0xbbff5f61	-0.0077933525
246	0xbbe73f29	-0.00705709
247	0x3bd31240	0.0064413846
248	0xbb4717c9	-0.0030379167
249	0xbafb3b5b	-0.001916747
250	0xbc820f9d	-0.015876586
251	0xba025f58	-0.0004973314
252	0xbb961d4d	-0.0045811296
253	0xbcb2a5a8	-0.021807507
254	0xbd12757a	-0.035756566
255	0xbc99dfb3	-0.018783426

encoder.2.bias f4 [32]
0	0xbc7dee95	-0.015498777
1	0xbc159389	-0.009129413
2	0x3d5345d9	0.051580284
3	0x3d244472	0.040104337
4	0x3dd4be0d	0.10387812
5	0xbd4a5363	-0.04939593
6	0xbbb3f37d	-0.0054916725
7	0x3c8df70c	0.017329715
8	0x3cb7cdc5	0.022436986
9	0xbd481caf	-0.04885548
10	0xbcc59c22	-0.024122301
11	0x3bbc7573	0.0057513057
12	0xbdd162f5	-0.10223953
13	0xbcaff8d7	-0.02148096
14	0x3d1cbcad	0.038265873
15	0x3d63c332	0.055606075
16	0xbd490c02	-0.049083717
17	0xbe03fadc	-0.12888664
18	0xbddf706d	-0.109101154
19	0xbcbe7cb1	-0.023252817
20	0xbdf1e1a6	-0.11810617
21	0xbd8f7ad9	-0.07005853
22	0x3d893a00	0.06700516
23	0x3da8a45b	0.08234473
24	0xbdcb9dde	-0.0994222
25	0x3b12d5a6	0.0022405176
26	0x3d931250	0.07181227
27	0xbd5169b3	-0.051126193
28	0x3c3bcde2	0.0114626605
29	0xbc369e08	-0.011146076
30	0xbd053d28	-0.032529026
31	0x3bc39306	0.0059684543
