Models/vae_model.pth (torch, 861541 bytes, 10 tensors)

fc1.weight f4 [128, 785]
00000000: 9040 dd3c 0ea4 15bd b9e1 2bbd 8ac9 7cbd
00000010: cc60 c5bc 047e 18bc 309d 20bc 9eee ff3b
00000020: 0997 8ebd 5043 4dbd 9ef1 65bd 660e a43c
00000030: 4b6a 8d3c 4e93 323c 471a 6cbc bf85 1fbd
00000040: 0323 d4bc 700b b83b fd40 e6bc b100 6bbb
00000050: 2ed3 e3bb fd36 2b3c 34bf b63c 1f84 843c
00000060: 3572 853c 876f 843d 3b26 a33c 53af 0f3d
00000070: c236 3ebd c8c7 bcbc b11b 84bd b37e 27bd
00000080: 4036 1fbd ee2a 743c 11f1 893d 8b01 86bd
00000090: 35b8 193d bc17 713d f965 c3bb 8e27 da3a
000000a0: d935 66bc 458b 85bd f834 57bd 22c0 f63b
000000b0: e46a 51bb 5883 3d3d db22 a93c d4d5 76bb
000000c0: 3973 7f3c 3e58 4abd 824b c8bb e0c7 8dbd
000000d0: f390 adbc c131 533d 86ce 6bbc e764 2cbc
000000e0: 106b 553d 2ffb 003c e87b 5f3c 61f2 663c
000000f0: d8d8 2abd 452c 823c 63e3 8fbd 2bbb a7bc
00000100: c5b9 1c3d 669b 473d 4d56 4abc bf73 08bd
00000110: a09d 81bd 905e eaba a62e 3ebd 9362 6fbd
00000120: 8bbf f5bc 1a70 28bc 5b0c c6bb 2ab0 153d
00000130: 3cde 2ebd f816 2dbc 588c c8ba 6b75 14bd
00000140: f72f 803d 2230 82bd 5d39 b4bc 04c3 263b
00000150: 8265 04bc de77 903c 646c 4b3d 0638 84bc
00000160: 020b 993c 51d6 c43b 59ea c1bc 787f 19bc
00000170: 0019 5b3c a071 5bbd 21ba d6bb 60a1 63bd
00000180: 4f53 0dbc aa4b ffbc 9817 58bc 2e7a a03c
00000190: 362a 88bc 8510 923d 5c5b 0dbc cae3 06bc
000001a0: 1948 203d 8ace da3c d8a7 9fbd 737b de3c
000001b0: 39c5 543c 82f3 6a3d 32e6 413c 7c63 bb3d
000001c0: bf0d 153c fa24 103a b155 2d3d f286 04be
000001d0: 487d 3d3b 4a86 173c f9c7 1f3d d355 2dbd
000001e0: bade 01bd 994e 4f3c 3f95 983c 205d dd3b
000001f0: dbb8 853d 0878 fa38 76c3 3d3c c2da 32bd
00000200: 37ea 62bb 4552 ac3b 1c41 bbbb 71fc a6bb
00000210: 580f bebc e6dc 2e3c cbae 0dbd 382b 2fbd
00000220: 6427 debc e453 843c 2117 173d c0b8 90bd
00000230: 197d 93bd 7240 1f3a 2491 83bd 8a9d ff3c
00000240: bf7c ca3c 51b2 513d 8992 053d e690 a63c
00000250: f2d4 233c 221e 873d 3988 393c d470 1fbd
00000260: 88e6 b5bb 0839 1bbc 59c4 383d 667c 333c
00000270: c635 a9bc b83e f9bc 044f edba 50b9 133d
00000280: 86d5 8c3c 39ed f1bc 1975 2e3d 404f 3c3c
00000290: 457a 6bbd 2abd ce3c b23c 18bd 104f b43a
000002a0: 36a0 513d 50e4 99bd 3a73 753d fe97 27bb
000002b0: 226f 94ba b8fe 6b3c ccea 6dbc 3677 fbbb
000002c0: 547b 273d f1ea 143d 27ba b23c 2c23 d03b
000002d0: ac10 38bd 5348 fcbc e0ff d43a eeb2 05bd
000002e0: 7bda c53b 160f d23c fd17 d4bc 6b2b 413c
000002f0: a844 5fbc 81de adbd 75ba 89bc 0e4e eabc
00000300: 7373 44bc efdb 0f3d fe6a 1e3b fb92 a73d
00000310: 1c61 17bd abf0 2a3d 9c20 48bd 6d28 743b
00000320: 6e37 8e3c d614 81bc e2cb 9c3d 9de2 54bd
00000330: 11a5 30bd 6a96 d7bc 4d6b 4c3c c78c 3e3d
00000340: 6ae8 d3bc 08c3 cdbc 3d37 58bc 65af b8bc
00000350: bb03 2f3c 5da9 64bd 91bf 0fbd 1149 043b
00000360: 817c e2bc e5f1 f93c 6ec0 43bd a35c 1a3d
00000370: f512 bd3c 29a7 803d 14fa 1d3b e7a1 f6bb
00000380: 1077 5fbd c4bf 41bd 87bf 27bd 33b5 50bc
00000390: 0fab 4d3c 41e6 89bd 19d2 13bd ee97 2c3d
000003a0: f4e8 983c 83aa acbc 00d1 21bb c2df 1ebb
000003b0: 4e8a c13d 5bf2 d2bb 4cca 073b 3b20 46bd
000003c0: b147 25bd d5ad c3bc 6977 65bc 1c3d 7b3b
000003d0: 1bdf a53d bd4b a33a 0eab 6bbd e180 e1bc
000003e0: 89b5 143d 7ac6 1bbc 5d91 84bd ff94 64ba
000003f0: 6947 50bc 0ace a53b fec1 443d 972b 3e3d
0.027008325 -0.036533408 -0.041963313 -0.06171564 -0.024094008 -0.009307388 -0.009803101 0.007810428
-0.069624014 -0.050113022 -0.056138627 0.020026397 0.017262598 0.010899378 -0.014410562 -0.03894591
-0.025895601 0.005616598 -0.02810716 -0.0035858566 -0.006952665 0.010450122 0.02230797 0.016176281
0.01628981 0.06466585 0.01991569 0.03507931 -0.04643894 -0.023044482 -0.06450594 -0.040892314
-0.038870096 0.014902813 0.06735433 -0.06543263 0.03752919 0.058860525 -0.005963084 0.0016643868
-0.014050924 -0.06520704 -0.05254075 0.0075302282 -0.003195458 0.046267837 0.020646503 -0.0037664073
0.015591436 -0.04940056 -0.006112517 -0.06922889 -0.021187281 0.05156112 -0.014392501 -0.010522104
0.052104056 0.007872387 0.013640381 0.014095874 -0.041710705 0.01589025 -0.070257924 -0.02047499
0.0382631 0.048732184 -0.012349677 -0.03331351 -0.06328893 -0.0017880965 -0.046431206 -0.058443617
-0.029998561 -0.010280633 -0.0060439534 0.036544956 -0.042692408 -0.010564558 -0.0015300615 -0.03624479
0.062591486 -0.06356837 -0.02200001 0.0025445828 -0.008080842 0.017635282 0.049663916 -0.016139995
0.018682007 0.006006994 -0.023671316 -0.00936877 0.01337266 -0.053575158 -0.00655295 -0.05557382
-0.008625819 -0.03116401 -0.013189219 0.01958951 -0.01662169 0.07132057 -0.008627739 -0.00823302
0.039131258 0.026709814 -0.077956855 0.027158475 0.012986475 0.057361133 0.011834668 0.091498345
0.009097516 0.0005498674 0.04231805 -0.12942103 0.0028913785 0.009248326 0.03900907 -0.042318176
-0.03170655 0.0126530165 0.018625854 0.006755486 0.06529399 0.000119432865 0.011582246 -0.043665655
-0.0034624466 0.0052588307 -0.0057145488 -0.0050960113 -0.023200676 0.0106727835 -0.034590524 -0.042765826
-0.027118392 0.016153283 0.03688729 -0.07066488 -0.07201595 0.0006074972 -0.06424168 0.03120305
0.024717687 0.051195446 0.03261045 0.020332765 0.009999501 0.06597544 0.011323982 -0.03892596
-0.005551163 -0.0094740465 0.045109127 0.010954952 -0.020655524 -0.030425414 -0.0018105214 0.0360654
0.01719166 -0.029532062 0.04259214 0.011493504 -0.057489652 0.025236685 -0.03716726 0.0013756473
0.05117818 -0.0751425 0.05992434 -0.0025572772 -0.0011324624 0.014403991 -0.014521312 -0.007674123
0.0408891 0.03635687 0.02181728 0.006351849 -0.044937775 -0.030796206 0.0016250573 -0.032641344
0.006038008 0.02564196 -0.025890345 0.011790137 -0.013627209 -0.08489705 -0.016812542 -0.028601673
-0.011990416 0.035121854 0.002417266 0.08182331 -0.036957845 0.041733425 -0.048859224 0.003725554
0.017360415 -0.015757006 0.07656075 -0.051973928 -0.04312617 -0.02631684 0.012476754 0.046520974
-0.02586766 -0.025117412 -0.013196764 -0.022544572 0.010682042 -0.05582558 -0.0350948 0.0020185153
-0.027647259 0.030510852 -0.047790937 0.037686 0.023080328 0.06281883 0.0024105357 -0.0075266245
-0.054556906 -0.047302023 -0.04095414 -0.012738514 0.012552991 -0.067333706 -0.036089037 0.04213708
0.018665768 -0.0210774 -0.0024691224 -0.0024242257 0.09450208 -0.0064375824 0.0020719944 -0.04837058
-0.040351573 -0.0238866 -0.01400552 0.0038335985 0.080991946 0.0012458485 -0.057536177 -0.027527275
0.036305938 -0.00950777 -0.06473038 -0.0008719712 -0.012712338 0.005059962 0.048036568 0.04642829

fc1.bias f4 [128]
00000000: a7c0 373d 438d 283e f985 aa3d 10e9 253e
00000010: a8bc 2a3e d7b0 fb3d 0eec 1e3e f34c 1a3e
00000020: 3ba0 503e acdb 213e b391 3d3e 15ee 103e
00000030: a7e1 283e d2ea 173e 8165 673e 0ed0 963d
00000040: 520c 413e 7481 303d 7da3 3e3e 5d36 6a3e
00000050: 2c8d 223e 41f1 153e 9a0b 013e 9221 ca3d
00000060: 020c ed3d 21d3 133e 985d ad3d 915d 1d3e
00000070: 2991 073e 9a44 ba3d 8d35 2b3e 700b 0e3e
00000080: 4a35 db3d 2f9c 8c3d a6da dd3d a6d3 223e
00000090: f26d 153e 4be6 2c3e e8bc d43d b8a0 983d
000000a0: beb4 193e a826 f03d bf17 163e 4d18 283e
000000b0: b388 d73d ccdf cf3d 3d7f 263e 29d0 143e
000000c0: 7783 3c3e 6fc0 fe3d c53a 053e 9f68 993d
000000d0: 58f0 fb3d fe2e fd3d ebcd bd3d 4a84 973d
000000e0: 5aca 373e 8205 433e 3ac1 373e 2d05 113d
000000f0: ea12 d83d ccdc 8f3d 8e72 c03d 1db9 173e
00000100: ec13 013e ca4b 563e 486f 613d 1a87 063e
00000110: c8a9 003e 6cb0 463e 83e7 2d3e 8918 dd3d
00000120: 96b2 833d bc18 a13d e7a7 973d a3fa 043e
00000130: e038 1f3e beaf 153e 67e4 6b3e 87b4 2e3e
00000140: a2f8 073e e032 b93d f975 833e 1769 4d3e
00000150: fbf6 413e 6f4d d33d fd2f 7a3d 2dea b83d
00000160: b88f b43c 0e69 c73d 9211 c43d 0827 1b3e
00000170: 05b9 243e 1944 1b3e 73ca 593d 5fd7 153e
00000180: 7db6 353d 90a1 033e 506d 313e 764d 9e3d
00000190: aa04 7e3e 1463 b53d 4c6e 313e bf13 0e3e
000001a0: 5c30 073e 6ac5 b23d b84c cd3d 94f7 b93d
000001b0: 284a 303e fad0 1d3e 1e63 953d 6ff0 803d
000001c0: f20f b63d 6f19 8e3d 11c0 ec3d ba06 483e
000001d0: ce9f db3d b753 a23d c1a1 1e3e eb1b 183e
000001e0: 9a37 153e fc49 893d 08c9 973e 430d 033e
000001f0: 318f db3d 8994 eb3d 086f c43d 8273 913d
0.044861462 0.16460137 0.083263345 0.16202188 0.16673529 0.12289589 0.15519735 0.15068416
0.20373623 0.15806454 0.18512611 0.14153321 0.1649233 0.1483567 0.22597314 0.07363902
0.18852356 0.043092206 0.18617053 0.228723 0.15874165 0.14642812 0.12602082 0.09869684
0.11574556 0.14436008 0.08465117 0.15367724 0.13238968 0.09095116 0.16719647 0.1387155
0.107035235 0.06865727 0.108327195 0.1590105 0.14592722 0.16884725 0.103875935 0.0745253
0.15010354 0.11726123 0.14657496 0.1641552 0.1052412 0.10150108 0.16259475 0.14532532
0.18409525 0.124390475 0.130107 0.07490658 0.12301701 0.12362479 0.09267791 0.07398279
0.17948285 0.1904507 0.17944804 0.035405327 0.105504826 0.070245355 0.093968496 0.14816709
0.12605256 0.20927349 0.055037767 0.13137475 0.12564766 0.19403237 0.16982846 0.10795695
0.06430547 0.07866046 0.07405072 0.12986235 0.1554904 0.14617822 0.23036347 0.17061053
0.1327844 0.09042907 0.25675943 0.2005962 0.18941872 0.10317504 0.06108092 0.090290405
0.022041187 0.097368345 0.09573664 0.15151608 0.16086204 0.15162696 0.053171586 0.14632939
0.044363488 0.128546 0.17326856 0.07729618 0.24806467 0.08856788 0.17327231 0.1387472
0.13202041 0.0872906 0.100243986 0.09080425 0.17215788 0.1541175 0.07294296 0.06295859
0.0888976 0.06938445 0.11560071 0.19533816 0.1072384 0.079261236 0.15491392 0.148544
0.14571992 0.067035645 0.29645562 0.12798028 0.10720671 0.1150294 0.0959149 0.071021095

fc_mu.weight f4 [32, 128]
00000000: 5cd0 ac3b 1728 71bd afb7 203d dce5 a83c
00000010: 847e bdbc bbb1 efbd 68e8 cf3d fae1 463c
00000020: fc65 ba3c 982c 9b3d 7e0d d33d 7621 193e
00000030: e169 a53d 2bec 82bd 6502 3d3d 314d 8e3d
00000040: 2083 fcbd ac70 a73d eefc e43d c1b1 af3d
00000050: 9600 7dbd c3e5 7b3d 9fc1 b63d 437a 10bc
00000060: 7e5a 82bd d7ca aa3d 0379 e2bc c31d 36bd
00000070: 81ba 553d 1f4e 9bbd ca05 b63d 8125 083d
00000080: 9c8e 343d bbd0 e4bc 6bc8 e13c b374 bb3b
00000090: f5a7 01be abe7 5f3b 3f63 b1bd 651b 33bd
000000a0: 5468 4fbd cbe3 f5bd 17e9 9abd 87c3 883d
000000b0: 0307 a33d 5ed8 b83c 8333 333d bcb3 41bd
000000c0: 2076 5abc 6a66 323c 0404 d53d a6d8 a33c
000000d0: 7744 9dbd 8c54 703d 6719 24bd 38dd 2239
000000e0: 2f86 45be f0f6 d5bd eeb2 cbbd d64f da3d
000000f0: 54ec b83d d122 d13d d9cd cdbd 7e89 c83c
00000100: 002c f2bd 357c 18bd 02fe 073d fa9b 82bc
00000110: 00ca d7bd d666 fcbd 84e5 263d fda0 c7bd
00000120: a079 4e3d 6ead 983d 5d90 5a3d f99e efbc
00000130: 7436 8fbd ae47 80bd 65ae 4bbd ed30 6a3c
00000140: 6751 a63d 62fd 033e fbe4 c93c f6d4 c23d
00000150: 2a84 72bd da4f 0abd 260c d4bd 9d34 ef3c
00000160: 6198 2fbd a61d a0bd 052c eebc d4b1 eb3c
00000170: fcca 8c3d 7f9c 913d 84b4 943d c886 16be
00000180: 20b0 963c 317a d33c 5cb6 573d d788 18bd
00000190: b137 84bd aa26 3fbd 3610 1abe 371d 123d
000001a0: a134 cdbd 6b43 8e3c d912 a33d 4611 b63b
000001b0: 4df0 c43b 91aa 8bbd f5b5 9fbd f8da 24bc
000001c0: 0eaf 113d 5a5c aa3d 7e55 e8bd 94bb 86bd
000001d0: 189f 14bd 7879 353d 1b07 c7bc 6a91 a9bd
000001e0: 45b0 483d 0a35 b5bd 1a5c 3cbc cc62 333c
000001f0: fdd7 c03d 7155 21bd 68ef 393b 4103 b13b
00000200: 6c5e 9bbd ad34 bbbd a41f 03bd 6d2c 103e
00000210: 5a3c ba3d 080e 97bd 3c24 d1bd 5293 c0bd
00000220: 833d c33c b722 f53b d5a6 123e 6597 aebd
00000230: 4afe a73d e1e2 b4bc 05bc 3d3d ac94 543d
00000240: 52f1 24bd 386a 6c3c d794 883d 1877 753d
00000250: 3be9 b2bc b1f1 9abd 3146 83bd 136d 4b3d
00000260: e8c0 b33c 88f0 90bd 700f 1abd 2565 7e3d
00000270: f7a2 23bd 8166 c03d 4835 ccbd 3885 aabd
00000280: 6daf 183d 0497 ed3c 3888 b2bb 0bda 0ebe
00000290: 9f2c a03d b270 ba3d acfa 67bd 4fe0 b4bd
000002a0: 42bc d83c fb93 acbd 4001 2dbd 0e24 c93c
000002b0: e7a6 813d fd37 2dbd 0119 f3bc 0bce 1b3d
000002c0: 85b6 a6bd 028e a43d 81ef 08be 8229 4a3d
000002d0: 6bc1 6e3b 8b72 023e dad1 d5bd 0948 273d
000002e0: 4110 183d 5602 643d 51bc cbbd f8c0 e8bc
000002f0: ed22 f93c 08b9 85bd a122 51bd 6c39 7bbd
00000300: 142c d6bd 0bd8 0f3e 8e76 043d ed0b 81bd
00000310: 3e12 a73d e30a 4c3d 5e26 283d effc 01bc
00000320: 6a31 96bd 109a 743d aa30 05be bed3 d1bd
00000330: 48fe 45bd 308a ffbd e06a 353d ca0f 96bd
00000340: 2dee a6bd a8b4 06be ffaf 0dbe cbfa 96bd
00000350: 71c7 703c e7aa a03c 0d1a bb3d 9cf0 b93d
00000360: 914b 02bc aa6d d43b f024 41bd 36da a73d
00000370: ee7a b93c 7c28 1b3d 3833 66bd 5b38 553d
00000380: 1523 0a3e 8d0b c03c fb3d da3c c9fb f53a
00000390: b2f8 c8bd a98c 11bc 3ae7 bc3d 351a 93bc
000003a0: 3146 efbc 9212 843c 7572 d6bb a71b 4abd
000003b0: b95e 9dbd ed58 e13d 36ac f1bd 833e 4d3d
000003c0: 810a 51bd 4876 2cbd 6a2d 3b3d 7083 4637
000003d0: daf2 cdbd eecf f83c 4e56 82bd c8f7 b33d
000003e0: 39c0 cabc 47eb e83c e15f c1bc b4ed a43d
000003f0: 6574 7c3d 9b17 53bc 67af 38bd 6145 f13a
0.005273862 -0.058876123 0.039237674 0.020617418 -0.023131616 -0.11703821 0.1015175 0.012138838
0.022753708 0.07576865 0.10305308 0.1495417 0.080768354 -0.06392702 0.04614486 0.06948317
-0.123296976 0.08175787 0.11181055 0.08578826 -0.061768137 0.061498415 0.08923649 -0.008818212
-0.06364916 0.0833947 -0.027645594 -0.044461977 0.052179817 -0.0758326 0.08887823 0.03323889
0.044081315 -0.027931562 0.027561387 0.0057206987 -0.12661727 0.0034165184 -0.08661508 -0.043727297
-0.050636604 -0.12006339 -0.075639896 0.06677919 0.07960322 0.02256411 0.043750297 -0.04729055
-0.013333827 0.010888675 0.104011565 0.020000767 -0.07679074 0.05867438 -0.040063288 0.00015531934
-0.19289468 -0.1044749 -0.099462375 0.10659759 0.09029451 0.10211719 -0.10049028 0.024479624
-0.118247986 -0.037227828 0.033201225 -0.015943516 -0.10536575 -0.12324302 0.040746227 -0.09747503
0.05040896 0.07454954 0.05336033 -0.029250609 -0.06992808 -0.06263672 -0.049726862 0.014293891
0.08120995 0.12889627 0.02464532 0.09513275 -0.059208073 -0.03376756 -0.1035388 0.029199893
-0.04286993 -0.07818155 -0.029073725 0.028771318 0.06874654 0.071099274 0.07260993 -0.14699852
0.01839453 0.025815101 0.052664146 -0.037239876 -0.06455935 -0.046667732 -0.15045246 0.035672393
-0.10019804 0.017366132 0.07962579 0.0055562584 0.0060100914 -0.06819642 -0.077983774 -0.010061972
0.035567336 0.08318396 -0.11344431 -0.065787464 -0.036284536 0.044305295 -0.02429538 -0.08279689
0.04899623 -0.08848007 -0.011496568 0.010948848 0.094161965 -0.039388124 0.0028371457 0.005401999
-0.07586369 -0.091409065 -0.032012597 0.14079447 0.090935424 -0.07375723 -0.10211989 -0.09403099
0.023833042 0.007480945 0.14321454 -0.0852497 0.08202799 -0.02208084 0.046321888 0.051899597
-0.040269203 0.014429621 0.06669014 0.05992803 -0.021839729 -0.0756563 -0.06409872 0.04966457
0.02194257 -0.07077128 -0.03761238 0.062108178 -0.039950337 0.09394551 -0.099711 -0.08326191
0.037276674 0.029002674 -0.0054483674 -0.13950364 0.07821011 0.09103526 -0.056635544 -0.08831846
0.026456956 -0.084266625 -0.04223752 0.024553325 0.06330662 -0.042289723 -0.029675009 0.038038295
-0.081402816 0.08034898 -0.13372613 0.04935599 0.0036431204 0.12739007 -0.10440417 0.040840182
0.037124876 0.05566629 -0.09948028 -0.028412327 0.030412162 -0.065294325 -0.051058415 -0.06133406
-0.10457626 0.14047258 0.032339625 -0.06301103 0.08157776 0.04981507 0.041052215 -0.007933839
-0.07333644 0.059717238 -0.13006845 -0.10245465 -0.048338205 -0.12477529 0.044291377 -0.0732723
-0.08150897 -0.13154852 -0.13836668 -0.07372054 0.014695988 0.019612743 0.09135828 0.09079096
-0.007952587 0.0064827995 -0.047154367 0.08195917 0.022641625 0.037880406 -0.05620119 0.052055698
0.13489945 0.023443008 0.026640883 0.0018767054 -0.0981306 -0.008883634 0.092237905 -0.017956832
-0.029208275 0.016122136 -0.006544406 -0.049342778 -0.076840825 0.11003289 -0.11800425 0.050108444
-0.051035408 -0.04210499 0.045697607 1.1832322e-05 -0.10056086 0.030372586 -0.063641176 0.08787495
-0.024749862 0.028432501 -0.023605289 0.08053151 0.06163444 -0.012884046 -0.04508915 0.0018407517

fc_mu.bias f4 [32]
00000000: 499f 123d be90 8c3c 3256 51bd e989 05bd
00000010: 869d 723d b1de 6e3d da90 e13c 27f8 08bd
00000020: 66d6 3d3d 21bd ca3b bb98 3a3d 45f4 9cbd
00000030: b15e b13d 94e9 5c3c cf9f b63c 51be 3e3d
00000040: 233b 96bd 8aee 453d 62cb 3abd 3cc7 0bbd
00000050: c00b 38bd 9b20 aebb edf2 843c fc3e 393d
00000060: 5285 413d 938e 2a3c 4069 90bd 18d9 05bc
00000070: 30a2 63bc 4ca2 803d 0b98 d4bc fa7a afbc
0.035796437 0.017158862 -0.051107593 -0.032602224 0.059232257 0.058317844 0.02753489 -0.03343978
0.046347044 0.0061870967 0.04555581 -0.07663778 0.08660639 0.013483424 0.022293 0.04656822
-0.07335498 0.04832319 -0.045604117 -0.03412555 -0.04493308 -0.0053139455 0.016229117 0.045226082
0.047246285 0.010409969 -0.07051325 -0.008169435 -0.013893649 0.06280956 -0.025951406 -0.021420944

fc_logvar.weight f4 [32, 128]
00000000: 6dc5 0fbe fff2 01be f1cd 7abd 8f40 d8bd
00000010: 9b8f d83c 2409 e3bd be06 c0bd e6b6 25bd
00000020: 3111 eabd 6e5f be3c ad91 efbd b20b e8bd
00000030: c72f bbbb 5510 dbbd ea52 92bd e346 323c
00000040: 6e13 d4ba 3daf efbd af80 48bd 1fcf cebd
00000050: 1d6a a1bc 52c1 9ebc fa19 0bbe 608e 1bbd
00000060: 9bc4 17bd 52da 30bd 346c 09bd aaf3 0fbd
00000070: 93af fabc b630 b23c 63a5 d2bb a177 103d
00000080: 7e95 02be c5c3 adbc 285f b5bd 7b18 903c
00000090: 045a 563c ffe4 3fbd a82a 4abd 2bbd 42bd
000000a0: 7e66 0fbe 00c8 c7bb 49a1 16be 5f83 84bd
000000b0: 8891 fcbd 8890 51bd a195 97bd b82f 12bd
000000c0: b26a fabd ac07 e03b 8f2f 88bd 01c0 a2bd
000000d0: b40b dabc 194b fbbd 3778 babc eae0 c0bd
000000e0: 5d44 a9bd b7c0 91ba 995e 9cbd 2d0d dabd
000000f0: 9882 0cbe 4a64 61bb 4be9 e2bd 9ab6 c0bd
00000100: 1b90 36bb 8698 62bd 74d2 463c e3d0 c9bc
00000110: 2f23 34bc 9ec7 71b9 b31f 74bc aa58 9cbc
00000120: 6216 b7bd d906 19be 7984 c5bd 5e8f afbd
00000130: 1d08 8e3c dc76 13bc b49a c2bc e760 b73b
00000140: b91e 42bd 6741 a83b 47ca 82bd 610e b73c
00000150: 8597 15be 3e80 abbd 82f2 f5bd 4f7e cdbd
00000160: 93cf 2cbd 8577 3b3c 1ae8 c43b 3ccf a1bd
00000170: 7195 43bd aba7 c4bd b369 3e3c d66d d8bd
00000180: 1fa6 a0bc 2876 ecbd f6eb f4bd d2b0 38bd
00000190: 2e68 dfbc a20d 9fbd 7a60 1dbe d466 a0bd
000001a0: d34d 01be 5c1e a0bd f6eb 6abd 27b2 29bd
000001b0: dca0 c1bd d3bc 35bc 58d4 87bc bd5c a4bd
000001c0: ce00 bfbd f075 c6bb a224 08bd f36f dcbd
000001d0: 7e6f 81bd 1f6c f4bd 2f24 e0bc 449a bbbb
000001e0: e693 063c cb2f 08be 28e0 c43c 7f73 6dbd
000001f0: 2585 89bc f11d 14be dfa9 cabd b959 e93c
00000200: 7d6f 1bbd d762 f3bc f574 a63b 486e 5abd
00000210: da28 b6bd fe14 5cbd 34ab 35bd 86aa ecbd
00000220: 61ff 21bd 1d38 b4bc c8bc 47bd b6bc e5bc
00000230: 3e7e 75bd 04b5 f7bd 5552 64bd 6831 9abc
00000240: 62f2 b23b 6868 663c 7546 a6bc 6fc6 01be
00000250: 1c42 c5bd f25f 9bbd a419 4cbd 7f3c 13bd
00000260: 79c2 19bd 495b 95bd 6ea8 b8bd 6e8e c4bd
00000270: 8b1a a9bd 3536 a63a eeee 08bd 88c8 84bd
00000280: c39c 8bbd 8b61 9bbd ce0b 64bd f2d2 bbbd
00000290: 8798 6bbd 50e1 7fbd a41a e5bd d58e 03be
000002a0: 5e8c 0dbe a918 26bc 5f1b d33a 08d8 d2bd
000002b0: 0360 743c bb23 06be 35c2 e0bd 2d77 b73c
000002c0: f8ff d73c 1efc d0bc 1f75 09be 7b02 83bd
000002d0: 0dc0 16bc e578 92bb fc9b e6bd 3591 88bd
000002e0: e4a9 a8bd 23a0 a6bc 8fbb f6bd 0aad 8ebd
000002f0: 6781 0a3d 7354 e7bd 8b13 03be 59f1 cdbd
00000300: 25fa fcbd 3f62 12bd cd43 febd c579 f7bd
00000310: 4886 81bd ea48 d0bd 1a25 ddbd af0a 57bc
00000320: eb97 7bbd 8446 96bd c596 d6bd 7bd0 1dbd
00000330: 5922 cfbd 9a5c 01be 94db 9dbd 4806 923c
00000340: 63a5 d2bc b154 c8bc f3c8 4e3c 2e9f 7dbd
00000350: 56b2 83bd e2e9 223d c0f7 a3bd 248b 9ebd
00000360: 34fc 85bd 16ba 943c fc40 50bd 3641 ffbd
00000370: f9e4 1bbd fcfd 8abd e231 4abd e3ff ff3c
00000380: 7120 92bd af79 d2bb 4ac9 aa3c 191a d5bd
00000390: 461e 09bd 5eb2 8ebd 0c72 cdbc c41d eebd
000003a0: 2b13 f3bc 4340 dabd f438 f0bd b1bf c0bd
000003b0: 2d09 dbbd 4bbf c7bd 1d6f 9fbd e40f b2bd
000003c0: c016 02be 311a acbc c25e 9dbc 2107 83bd
000003d0: 3edc cebd 4364 96bc a1b7 ef3c 1aef c93b
000003e0: f924 cdbd efda 8cbd 5d68 93bb 4de1 25bd
000003f0: 38d3 34bc b72c dbbd 0566 89bd 19fc 00bd
-0.14040156 -0.12690352 -0.061231557 -0.105591886 0.026435664 -0.11085728 -0.09376286 -0.04045763
-0.1142906 0.023238864 -0.11697707 -0.11330356 -0.0057124826 -0.106964745 -0.07144721 0.0108811585
-0.0016180107 -0.11703346 -0.048950847 -0.10098099 -0.019703919 -0.019379292 -0.13584128 -0.037977576
-0.037052732 -0.043176956 -0.033550456 -0.035144486 -0.030601298 0.021751743 -0.006428407 0.035270337
-0.12752339 -0.021211514 -0.0885604 0.017589798 0.013082985 -0.046849247 -0.049357086 -0.047543686
-0.14003941 -0.00609684 -0.14709963 -0.064703695 -0.123324454 -0.051163226 -0.07401586 -0.03569004
-0.12227382 0.006836852 -0.06649696 -0.07946778 -0.026616909 -0.12270183 -0.022762401 -0.09417899
-0.082649924 -0.0011120056 -0.076352306 -0.10647044 -0.13721693 -0.0034392052 -0.11079653 -0.094098285
-0.002785689 -0.05532124 0.012135137 -0.024635738 -0.010994717 -0.00023057914 -0.014900136 -0.019085247
-0.08939816 -0.14944018 -0.09644408 -0.08572267 0.017337853 -0.009000506 -0.023755409 0.0055962685
-0.04739258 0.0051347497 -0.063862376 0.022345724 -0.14608581 -0.0837407 -0.12009145 -0.10033857
-0.042190146 0.01144207 0.006009114 -0.07900855 -0.04774994 -0.096022926 0.01162188 -0.105678245
-0.019610463 -0.11545974 -0.119590685 -0.045090504 -0.027271356 -0.07766272 -0.15368834 -0.07832113
-0.12627344 -0.078182906 -0.057353936 -0.041429665 -0.094545096 -0.0110923825 -0.016580746 -0.08025501
-0.09326325 -0.0060565397 -0.03323806 -0.1076354 -0.063200936 -0.11934685 -0.027361004 -0.005725177
0.008213973 -0.13299482 0.024032667 -0.057971474 -0.016787121 -0.14464547 -0.098956816 0.028485166
-0.03794812 -0.029710216 0.0050798603 -0.05332783 -0.088945106 -0.053730957 -0.044352725 -0.11555962
-0.03955019 -0.021999413 -0.04876402 -0.028044086 -0.059934847 -0.12095073 -0.05574258 -0.018822387
0.005461023 0.014062978 -0.020297268 -0.12673353 -0.0963175 -0.075866595 -0.04982914 -0.035946365
-0.03753898 -0.07292802 -0.090165004 -0.09597479 -0.08257016 0.001268095 -0.033430986 -0.06483561
-0.06817009 -0.07586964 -0.05567532 -0.09171094 -0.05751851 -0.062470734 -0.11186722 -0.12847455
-0.13823077 -0.010137715 0.001610618 -0.10295111 0.014915469 -0.13099568 -0.10974542 0.022395695
0.026367173 -0.025510844 -0.13423584 -0.063969575 -0.009201062 -0.004469978 -0.112602204 -0.06668321
-0.08235529 -0.020340031 -0.12047493 -0.06966598 0.033814814 -0.11295404 -0.12800424 -0.10055799
-0.12352399 -0.035738226 -0.12415276 -0.120837726 -0.0632444 -0.10170157 -0.10798092 -0.013125106
-0.061424177 -0.073376685 -0.10477976 -0.0385289 -0.10113973 -0.12632981 -0.07707897 0.01782526
-0.025713628 -0.024454447 0.012621152 -0.061919384 -0.06430499 0.03977383 -0.08006239 -0.07741383
-0.065422446 0.018155139 -0.050843224 -0.1246361 -0.038060162 -0.06786725 -0.04936398 0.031249946
-0.07135094 -0.006423197 0.020847935 -0.10405368 -0.033476137 -0.069676146 -0.025078796 -0.11626771
-0.029672226 -0.10656788 -0.11729613 -0.09411562 -0.106951095 -0.09753283 -0.07784865 -0.08694437
-0.12703991 -0.021008583 -0.019210223 -0.06397844 -0.101006016 -0.018358355 0.029262366 0.0061625363
-0.100168176 -0.06877696 -0.004498525 -0.040498067 -0.011036687 -0.10701888 -0.06708912 -0.03149042

fc_logvar.bias f4 [32]
00000000: be24 e63b 5914 9ebd bb27 58bd e8ad 743c
00000010: f801 973c 44c1 9fbd f8b6 8f3b c0fc 28bd
00000020: 3164 7dbd c5c7 f3bd b47a b4bd 457e e13a
00000030: 4b0e 723c 9c7c 9cbd 731f 33bd a421 abbd
00000040: 19eb a3bd ff47 bbbd 27f7 8ebd dff8 53bd
00000050: 8ccb 983b 07e3 fa3b 6f5e bf3b b55e c5bd
00000060: c7e5 273c 0c0c 34bd 40e9 253d 4f6b 04bd
00000070: 2c4a bebd f6ad 15bd 5dfd bbbd 0d60 0fbd
0.007023423 -0.07718725 -0.052772265 0.014934041 0.018433556 -0.07800534 0.0043858252 -0.041256666
-0.061863128 -0.119033374 -0.08812466 0.0017203769 0.0147739155 -0.07640955 -0.043731164 -0.08356026
-0.08003826 -0.091445915 -0.06980734 -0.051751014 0.0046629366 0.0076564583 0.005840115 -0.096372046
0.010247654 -0.0439568 0.040505648 -0.0323289 -0.09291491 -0.036542855 -0.091791846 -0.03500371

fc_dec1.weight f4 [128, 32]
00000000: 7ab1 903d c804 09be 92d7 33be da6f fbbd
00000010: d9fe cf3d 2edf 13be 8938 b73d f1bc a1bd
00000020: c1d6 e7bd a33e 033e 6f6d 61bd de21 1abe
00000030: 9d55 0a3c b7fd d2bc f0a4 0d3e 2bdd 903e
00000040: 8ee3 e6bd b7e5 253d a0c3 09bd f83b e9bd
00000050: f83e fcbc bc12 c8bd 456c f1bc 2c23 923d
00000060: a31b df3d 6ca9 f33c 8263 12bd 4404 263e
00000070: 8365 c43b 7b06 fe3c a275 9a3b d5a3 02be
00000080: 5629 ea3d 0fb3 32be 4b58 423d 1005 18be
00000090: 80b7 b33d 3ac1 88bd f50d 93bd 0504 97bc
000000a0: 4ac5 f5bd 061d e83c 9e5d 353e 4c3f eebd
000000b0: 89c7 303e f5bc d03d 9f3b a6ba c011 1abe
000000c0: 3d39 853d 6603 a8bd 2680 35bd 23b6 f1bc
000000d0: c03b 1e3e 4f7a bc3d 1a85 3f3e e904 423d
000000e0: 9303 c5bd 6b12 1e3d f8ed fb3c 0338 c63d
000000f0: 8d79 513d aaab 2c3e 6acd 11bd 1432 543d
00000100: 8973 3d3e 09fc f7bd 5377 e2bc fea5 cebc
00000110: 31b6 0fbd 44bc 18be 3b5a e8bd a0b6 e3bd
00000120: 2ee2 56bd d6ef 2f3d 836f 49bd 429b 163d
00000130: c4b6 9cbd 491d a43d 7a19 26bd 938a 393c
00000140: 4e20 51bd 5cbe 1cbe 5bf2 34bd f0b7 443d
00000150: 3fca afbd a319 b83c 665f 49be 45e2 0f3e
00000160: 7443 b4bd da59 40bd 55e4 ecbc 8b19 b7bd
00000170: a4ce 263e cd22 63bd 5b5a 65bd a31b b8bd
00000180: 192e f8bd e051 8ebd a676 64bd 5768 15be
00000190: 1d8a f03c d8a7 84bd 3d34 0e3d 21f2 e3bd
000001a0: cff4 043e c1af 3ebe cc59 cf3d 2927 bdbd
000001b0: d7b8 4e3d 29c6 113e 5d74 0abe 6116 a83c
000001c0: b7be 05be 605f 203c 5964 e3bc cfb1 97bd
000001d0: c268 243b 87f9 49bd 395b ed3c dfa2 29be
000001e0: c6a3 2cbe e414 b0bd 4959 283e 1a40 433d
000001f0: b358 b9bd 219a b6bc 326b 09be c84a 923d
00000200: 53eb 6fbd e203 9f3c d1b8 0a3e ccf0 bd3d
00000210: f92f 13be 3ed4 89bd da4d 993d 4432 8fbc
00000220: a99e cabd f98f 4abd 6eff 043e ce20 01be
00000230: 4995 05be 5463 063e d98a a4bc 7893 e5bd
00000240: 464a cabd aa1f d43d 38bf b83d 03fd 28be
00000250: dc22 313d c7c9 043d bfbb 34bd 7479 94bd
00000260: 3668 29be a95f 913d a451 843c 6e40 ba3b
00000270: 11df bd3d 6078 c0bd 0c92 043d f8c6 cf3c
00000280: 3756 97bc 75f2 2b3e 99d5 413e a274 38bd
00000290: dd7c 343d 7d0d f9bc 0a08 483d 1a70 e93d
000002a0: 9bd7 803d 978d be3d 71e2 e83b 2c9e 063c
000002b0: 00b6 d0bd 18b4 ae3d e9b8 ccbd a295 e63d
000002c0: 5078 943d 3954 0ebe abe7 163e 803d 9f3d
000002d0: 59bb 493e 2207 9f3c ee2f 9bbd 69b4 36bd
000002e0: 0f47 f8bd 621f 483d eb6a 79bd c4d5 b33b
000002f0: f63c d53d 9e56 1a3d 2eb9 21be 0ab2 febd
00000300: db5d 5f3e 926c f0bd bcf0 b33d 0ce1 22be
00000310: e0ca f6bd d66b 213e 8cdd 023d 4069 fb3d
00000320: 9769 023e 2a63 543d b301 d03d 4572 013e
00000330: 26fe 493b 5ca4 0ebc 7a1b 2a3e b437 813d
00000340: 096a 05be e4f3 ca3d fdda 3ebe 319f e33d
00000350: 1774 4ebd 6631 43bd ec4c 69bd 63c9 113d
00000360: 029d 6d3d 4115 543e 613f debd 2b8a 0c3e
00000370: 0f62 ee3d 1e89 12be e2c7 03be ba84 5ebd
00000380: 3c5f 32be e31a dabd 92fc 053e a297 a63d
00000390: d8c4 ef3d 1781 eebd 3052 af3b 3a7d 3b3e
000003a0: dd35 f8bd e37d 543e 0dbf 91bd 8844 b0bd
000003b0: e186 173e 5ff5 203e 12c4 113d 6d97 36be
000003c0: 50e1 be3d aa33 9dbd 2e25 24bd 8f0d 16bd
000003d0: bba2 73bd e1fc c2bd 5ff5 1dbe 7122 e4bd
000003e0: 0cf2 bc3d cd81 c6bd 874b b33d 6159 e7bd
000003f0: d7e4 d6bd 9b57 763c 96a2 f9bd 0645 103e
0.07065101 -0.1338073 -0.17562702 -0.12277193 0.1015603 -0.14440605 0.0894633 -0.07897366
-0.11320258 0.12816863 -0.055036005 -0.15051982 0.008443263 -0.025755746 0.1383245 0.28293738
-0.11273871 0.040502276 -0.03363383 -0.11388391 -0.030791745 -0.09769198 -0.029470572 0.07135615
0.10893943 0.029743873 -0.03573943 0.16212565 0.0059935465 0.03100895 0.00471373 -0.1275781
0.114336655 -0.17451118 0.047447484 -0.14845681 0.08775234 -0.0667748 -0.071803965 -0.018434534
-0.120005205 0.028334152 0.17711493 -0.11633167 0.17263617 0.10192291 -0.0012682563 -0.15045834
0.06505058 -0.08203773 -0.044311665 -0.029505795 0.1545248 0.09203016 0.18703118 0.047367964
-0.09619822 0.038591783 0.03075312 0.09678652 0.05114131 0.1686236 -0.03559629 0.05180557
0.18501104 -0.12108619 -0.027644789 -0.025225636 -0.03508586 -0.14915568 -0.11345335 -0.11118817
-0.052461796 0.042953335 -0.04917861 0.03676916 -0.07652047 0.08013398 -0.04055164 0.011324543
-0.0510562 -0.15306991 -0.04417644 0.04802698 -0.08583497 0.022473162 -0.19665298 0.14051159
-0.08801928 -0.04696069 -0.028917471 -0.08940419 0.16289765 -0.05545311 -0.055994373 -0.08989646
-0.121181674 -0.0694921 -0.055777214 -0.14590584 0.029362733 -0.06477326 0.034717787 -0.11130167
0.12984012 -0.18621732 0.10124549 -0.09235985 0.050469246 0.14235748 -0.13520952 0.020518484
-0.13061033 0.009788364 -0.02775781 -0.07406961 0.0025086855 -0.049310233 0.028974162 -0.16566037
-0.1685935 -0.085977346 0.1644031 0.047668554 -0.09050121 -0.022290291 -0.13419798 0.0714317
-0.058574032 0.019411031 0.13547064 0.09274444 -0.14373769 -0.06729935 0.07485552 -0.017480023
-0.09893543 -0.04945371 0.12988064 -0.1261017 -0.13045229 0.13123828 -0.020085739 -0.11209768
-0.09877448 0.10357602 0.09020847 -0.16502766 0.043246135 0.032418992 -0.04412436 -0.07249728
-0.1654366 0.07098324 0.01615221 0.00568395 0.09271062 -0.0939796 0.032365844 0.02536343
-0.018473728 0.16791709 0.18929137 -0.045033105 0.04406439 -0.03040194 0.04883579 0.11398335
0.062911235 0.0930435 0.007107072 0.008216422 -0.10190964 0.08530444 -0.09996206 0.11259009
0.0724951 -0.13899316 0.14736812 0.07775402 0.19700374 0.01941258 -0.07577501 -0.044605646
-0.12122928 0.048858054 -0.06089298 0.0054881293 0.10412018 0.03768026 -0.15793297 -0.12436302
0.21813147 -0.11739458 0.08786151 -0.15906161 -0.12050414 0.15763792 0.031949565 0.12275934
0.12735592 0.051852383 0.10156574 0.12641247 0.003082165 -0.0087061785 0.16612044 0.06309453
-0.1302873 0.099098 -0.18638225 0.11114348 -0.05040368 -0.047654532 -0.056958124 0.035592448
0.058011062 0.20711233 -0.10851932 0.13724582 0.11639797 -0.14310119 -0.12869218 -0.054325797
-0.17419142 -0.106496595 0.13084629 0.081343904 0.11707467 -0.11645716 0.0053503737 0.18309489
-0.121196486 0.20751147 -0.07116518 -0.08606821 0.14797546 0.15718602 0.035587378 -0.17831202
0.09320319 -0.0767587 -0.04007452 -0.036634024 -0.059481364 -0.09520889 -0.15425633 -0.11139382
0.09225854 -0.09692726 0.0875464 -0.112963445 -0.104928665 0.015035535 -0.12189214 0.1408883

fc_dec1.bias f4 [128]
00000000: 2d0a 36be 7299 143c 1609 34bd d4cc e93d
00000010: 7617 c93d c9f5 183e 38d4 0dbe 1aaf 4f3e
00000020: 1beb a73d 89c9 693e 5626 4bbe 0247 153d
00000030: 174f 15be ea78 0c3e dc18 4abe e947 a03d
00000040: 1685 233e 9a19 783d 83c0 a2bc 3cf1 e0bd
00000050: f70c 85bd ec2a a3bd 1f7d 473d 8d8f a83b
00000060: 3a6f 0bbe a7a8 fe3d 9fee 04bb 06e6 9dbd
00000070: 3ce7 5fbd 799f d9bd 9c75 b5bc d9db e83d
00000080: 2cec bebd 18c7 ab3d a1a4 4e3d d8f7 05be
00000090: c937 f7bd ceb8 273e c8de 743d 7100 34be
000000a0: ce2d 253e 7e67 06be 1385 0a3e 22f4 0b3e
000000b0: e786 f83d 81a3 07be f89f 6cbd f0ff ca3d
000000c0: d919 92bc 86be 133e e119 813d 21df 103e
000000d0: d092 e2bd 0554 ebbd e1c0 9abd d7a8 0b3e
000000e0: c8a7 e73d 28df 61bd 4557 11be 1257 2f3e
000000f0: 1bc1 96bd 1526 12be 37b5 d8bd 9df7 1f3d
00000100: 66a4 51be 3cd0 3cbd 345f a73c 2dec 7dbd
00000110: 13f2 b7bb 5b21 9fbd ec61 cbbd b102 c7bd
00000120: 064f 36bd 1258 cabd e2e5 e23c 8215 393d
00000130: ee1b dd3d 3fec e9bd e690 0e3e c8f1 ccbd
00000140: f862 153e a65e f93d 2777 2a3d 4098 87bd
00000150: a4d9 8abd ecf8 17bd ad67 54be d9c4 e53c
00000160: f970 e7bd ecd0 2bbe 4ddc fbbd adc9 383e
00000170: ce22 8c3d ff7a dabd 2ad7 5d3c 02a3 2f3d
00000180: 67bf 5abd c044 293e 0e87 22be 96a4 0b3d
00000190: 1c64 393e b061 d6bd b777 0dbe 5dec 98bd
000001a0: 3d86 ee3d b447 1ebb ebbb 913d 2b3d ca3d
000001b0: 32da ecbd 4d82 643e 2474 1abd 5df2 273d
000001c0: ef94 753d 9c34 a3bd d4c7 0f3d 7471 cfbd
000001d0: e462 dcbd a648 36be acd7 873d 28f6 adbd
000001e0: a745 8d3c 413c 183d 9c34 debd c754 d0bd
000001f0: 3382 22be 285f 06be c469 2c3e fc55 14be
-0.17777319 0.009069787 -0.043953978 0.11416021 0.09818928 0.1493751 -0.13850486 0.2028164
0.0819914 0.22830786 -0.19838843 0.03644467 -0.14580952 0.13718 -0.19736046 0.07826216
0.15968737 0.06057129 -0.019867187 -0.10983512 -0.064966135 -0.07967171 0.04870331 0.0051440657
-0.13616648 0.12434512 -0.002028383 -0.07709889 -0.05466388 -0.1062612 -0.022150807 0.113700576
-0.0932239 0.083875835 0.05044997 -0.13082826 -0.12071187 0.16379091 0.059782773 -0.17578293
0.16130754 -0.13125417 0.13527326 0.13667348 0.121351056 -0.13245966 -0.057769746 0.099120975
-0.01783459 0.14428148 0.06303764 0.14147617 -0.110631585 -0.11490635 -0.0755632 0.13638626
0.113112986 -0.05514446 -0.14193447 0.17123058 -0.07361051 -0.1427234 -0.10581439 0.0390545
-0.2047287 -0.046097025 0.020431139 -0.061992813 -0.0056135743 -0.07770034 -0.099307865 -0.0971731
-0.044508956 -0.09880079 0.027697507 0.045186527 0.10796343 -0.114220135 0.13922462 -0.100070536
0.14588535 0.12176256 0.04161754 -0.06620836 -0.06779793 -0.037102625 -0.20742674 0.028047966
-0.11300845 -0.16778916 -0.122978784 0.18045683 0.06842576 -0.10667991 0.013540069 0.042880066
-0.05340519 0.16530132 -0.15871832 0.03409251 0.18104595 -0.10467851 -0.13815199 -0.07466958
0.11646698 -0.0024151625 0.07115921 0.09874948 -0.11565055 0.22315331 -0.037708417 0.04100262
0.059956487 -0.07969019 0.03510268 -0.10129061 -0.107610494 -0.1780115 0.06632933 -0.08494216
0.017245127 0.037166838 -0.10849878 -0.1017242 -0.1586998 -0.13122237 0.16837221 -0.14485925

fc_dec2.weight f4 [785, 128]
00000000: 6c42 d1bd 3fc2 ad3d 3681 323d 3820 3dbc
00000010: 08c5 4a3d 08d1 f5bd 0275 16bd bf74 adbd
00000020: 355f 7a3c fe8d 443d c303 dd3d 2f99 d23d
00000030: 35ac 123d 8fab 9b3c bc23 4bbd 3da6 93bd
00000040: 07e4 a33b 9f77 5cbc e922 b23d a038 523d
00000050: 1ee7 15bc 9d0e 333d 184d 17be 49f8 483d
00000060: 4269 aa3d 1285 d3bb 2b86 9dbb 5272 b83d
00000070: fb2d cbbd 86d9 f4bc 1b44 523d e529 88bd
00000080: a1ca cbbd aa2d 8bbc 1a32 e73b abd0 403e
00000090: ab83 103e 3ab6 263d 8f49 843d 95e6 0abd
000000a0: 8b7f 75bd 41e1 9dbd 0ee3 ae3d bb41 67bd
000000b0: cde1 df3b ae1e babd b997 573c ce1d 73bd
000000c0: 5ac2 78bd 320d 5b3d 3011 0e3c 5270 813d
000000d0: 1039 503c dca2 0d3d 19f2 023a 346f 14bc
000000e0: 32a0 a33c 4fb0 89bd 4ba5 95bd 0a97 853d
000000f0: c1c9 3cbd 9b5f 203d 3c79 99bc 05ed 47bc
00000100: c287 01be ab4b 713d e1e0 b23d f85e b1bd
00000110: 88f1 0ebe a877 6f3d fba3 b53d 53f4 c03d
00000120: f58c 8ebd afde 7d3c 0cad fd3d 2917 a2bd
00000130: 7ca5 73bd 061a bc3c 1056 c0bd d399 253d
00000140: a843 d3bb 43b0 c6bd 23ad 5ebd dbae 713d
00000150: 1090 dcbc 325e 49bd 5e11 f8bb 03f0 45bd
00000160: 6ac4 743d 8a58 003b 0f8b 9f3c 12b3 94bd
00000170: e181 52b9 6212 393b c4bb 983c a434 f53b
00000180: c5b0 473d aec4 343d ffd0 44bd f973 5bbc
00000190: 47ce 10bc cc10 863c 6b8c dfbc e672 05bb
000001a0: da23 923d a11a 8abc 4ba4 82bd 758d ec3c
000001b0: 739a 323d 1809 c2bd a0fc ae3d dc3e c23c
000001c0: cd45 8c3d 4f47 953d 5c2f 283d b14f 94bd
000001d0: ca0e 753d 8285 2d3d 009e 36bc 7956 79bd
000001e0: fafe 6abc 81da ef3c e77e 53bd a09c b6bd
000001f0: 62d9 99bd 443c ab3d f664 b4bc 1cd8 93bd
00000200: 74f6 aebd c345 a8bc 79c1 ea3c 2414 ff3d
00000210: 22db 8bbc 78cd 223d d822 97bb ebc2 1f3c
00000220: 7a26 22bd c60a a13c f964 9ebd 4d21 4dbc
00000230: cd64 333d 2bfc afbd 9a34 d2bc dd3c df3d
00000240: 8799 bdbb ec76 acba 5546 b63c 2079 8739
00000250: b3ad 133d 9da8 713d 94e7 ba3d c103 873c
00000260: 5e8e 12bd cb77 41bd 9296 1a3c 9f3f 7dbd
00000270: 8402 8cbd a040 04bd a79f e9bc d6f1 8c3c
00000280: 5b4b db3d 609e 673c 612d b3bd 0238 853d
00000290: 1300 54bd e14e 41bd 998d 8b3d d2f6 6d3c
000002a0: ab0e 5cbd 7da4 ac3d 3628 493d 0ab2 a4bd
000002b0: 76d6 313b acfd ec3c fad0 f93c 8755 97bd
000002c0: 7d64 e03d e1fc 14bd cba4 b1bd 2b4e f5bc
000002d0: edb5 353d 2345 883c aad3 ff3b 5c1f 943d
000002e0: 0dd6 4dbd 3137 f93b a9a2 86bc 4206 3dbb
000002f0: c329 25be 8a9b 37bb 5683 143c a249 8dbd
00000300: d8de ec3c 48e1 4abd fe0e e0bd 6e7e 093d
00000310: 9c80 6bbd fe30 d03c 375c b53c e8dd 313c
00000320: 288c 683c 2e78 0abe 1cd0 7ebd bad3 a4bd
00000330: 0f82 683c 003c d1bb 8a66 2d3c e778 713d
00000340: ed27 b03d d7e3 dc3c 1c14 41bd 12de 79bd
00000350: 7a8b 603c 7940 10be 5357 62bc 2215 45bd
00000360: e7ed 45bd 46f9 fb3d 52cd 553d 048a c43d
00000370: 4f12 323c e7c5 a23c f2cf cebd bd66 7a3b
00000380: f59b 4f3d 8430 fa3d 7d9c 7e3d 725b 2b3d
00000390: 1043 bebd f40a 8ab7 1da0 52bc 58c5 1d3d
000003a0: 614b 3c3d 13d8 3839 c231 8e3d 023c 7e3c
000003b0: 1133 053d a8e2 403b 12f8 a3bd 0294 053d
000003c0: 6df4 13bd bc57 a53d 3abe 84bd 485c c83c
000003d0: f946 4c3d 637a 823d e65c c63d 047c 55bb
000003e0: 64de ac3c 17c4 3d3d 8154 95bb db85 21bd
000003f0: e818 053d 30cb e33c 2122 c03d bffd e23b
-0.10217747 0.08484315 0.043580256 -0.011543326 0.04950431 -0.1200276 -0.03673268 -0.08469533
0.015281488 0.047986977 0.10791733 0.10283124 0.03580876 0.019002704 -0.049594626 -0.07209442
0.005001548 -0.013456254 0.08698065 0.051323533 -0.009149341 0.04371511 -0.14775503 0.04906491
0.083208576 -0.006455072 -0.004807254 0.0900618 -0.099208795 -0.02988888 0.05133448 -0.06648616
-0.09950758 -0.016989548 0.007055533 0.188296 0.14112727 0.04070113 0.06459343 -0.033911306
-0.059936088 -0.077089794 0.08539401 -0.05645917 0.0068323375 -0.09087883 0.013158732 -0.059354596
-0.060732223 0.05347938 0.00867109 0.063202515 0.012708917 0.034579143 0.0004995182 -0.009059716
0.019973848 -0.06723081 -0.07306918 0.06522949 -0.046090845 0.039153676 -0.018734567 -0.012202506
-0.12649444 0.058910053 0.087342985 -0.08660692 -0.13959324 0.058463722 0.088691674 0.09421601
-0.06960479 0.015494986 0.12386522 -0.07914574 -0.05948399 0.022961628 -0.09391415 0.0404299
-0.0064472742 -0.09701588 -0.054364335 0.059004646 -0.026924163 -0.049162097 -0.0075704297 -0.048324596
0.059757628 0.0019584023 0.019475488 -0.072607175 -0.00020075544 0.0028239717 0.018644221 0.007483082
0.048752565 0.04413288 -0.048050877 -0.013394349 -0.008838243 0.016365431 -0.027288636 -0.0020362674
0.071357444 -0.0168584 -0.06378993 0.028876046 0.043604326 -0.09474391 0.08544278 0.023711614
0.06849251 0.07288992 0.04106079 -0.072417624 0.059828557 0.04236365 -0.011146069 -0.060873482
-0.014343018 0.029278995 -0.051634695 -0.089165926 -0.075121656 0.08361104 -0.022020798 -0.07218954
-0.08543101 -0.020541077 0.028656708 0.124550134 -0.017072264 0.03974673 -0.004612308 0.009751062
-0.039587475 0.019658457 -0.07734103 -0.012520147 0.043797303 -0.08593019 -0.025659848 0.109002806
-0.005786124 -0.0013158 0.022250334 0.00025839452 0.036054324 0.058998693 0.09126201 0.016481282
-0.035780303 -0.047233384 0.009435313 -0.061828252 -0.06836417 -0.032288194 -0.028518511 0.01720516
0.10707732 0.014136881 -0.0874889 0.06504823 -0.051757883 -0.047194365 0.06814117 0.014524179
-0.053724926 0.08429811 0.049110614 -0.08041771 0.0027135885 0.028929554 0.030495156 -0.0738936
0.109566666 -0.036373977 -0.0867401 -0.0299445 0.04436295 0.01663453 0.0078072147 0.07232544
-0.050252963 0.0076054563 -0.016434984 -0.0028842841 -0.16129212 -0.0028016292 0.009064516 -0.0689881
0.028914854 -0.04953125 -0.109403595 0.03356784 -0.0574957 0.025413986 0.022138698 0.010856129
0.014193572 -0.13522407 -0.062210187 -0.08048196 0.014191165 -0.0063853264 0.010583529 0.058953192
0.08601365 0.026964111 -0.04713832 -0.0610028 0.013705129 -0.14087094 -0.013814765 -0.048115857
-0.048322584 0.123034045 0.05219776 0.09596637 0.010868623 0.019869758 -0.10098256 0.003820821
0.05068584 0.12216285 0.062160958 0.041835256 -0.09290135 -1.6455982e-05 -0.012855557 0.03851828
0.045970324 0.00017628101 0.06943084 0.015517237 0.032519404 0.0029431973 -0.080063 0.032611854
-0.036121774 0.08073375 -0.06481595 0.024458066 0.049872372 0.06371 0.09685688 -0.003257514
0.021102138 0.046329584 -0.004557193 -0.039434295 0.032494456 0.027806848 0.093815096 0.0069272215

fc_dec2.bias f4 [785]
00000000: 210e 31bd a8f9 83bd 92c9 b63d 6dec e43b
00000010: 2c72 433d df85 4c3d e1fa f2bc d3c4 a0bd
00000020: 7f2c d4bc fbdb b6bc 4eff 9fbd cb55 a73d
00000030: fc96 96bd ff7b e3bb 8adb 05bd 0a63 a33b
00000040: 0e68 90bd a05d 56bd bd7a 86bd ba29 043d
00000050: 2ab0 f93c 6292 90ba d72a 9e3c 0fdf dbbc
00000060: 2d91 dfbd 75ea 323d 722b 193d 2116 0fbd
00000070: ed66 c43c 2c61 80bd 052f 18bd f683 abbc
00000080: 69eb 8d3d 682f a43d 6027 3dbd a96a 8fbd
00000090: a763 2a3c 6b69 bbbd eb4b 60bd e76d 3dbd
000000a0: e97c 3e3d d322 923d 6032 3c3c adfb f539
000000b0: 5c73 67bd b2c5 3a3c dd3d 1b3d 022d 8ebc
000000c0: 430b e0bc 0d76 0abd 7d9e f2bb bed1 033d
000000d0: 2a96 373d 805f 913c 424c 5e3d 069c 01bc
000000e0: 53b4 583d d5c5 43bd b9b8 f4bc 6f02 633d
000000f0: a0eb 0d3d 913e 13bd 5bc4 59bc e11b d93c
00000100: e04d 723d 0ef1 acbc e34d 183d 4cb1 ed3c
00000110: 22cf 893c b224 60bc 821d 743c 1681 103c
00000120: 64cf f0bc 489d 313d 3d94 1a3d a670 a13c
00000130: f8e8 163d 4686 49bd 2d98 ca3d d7a6 51bb
00000140: 17b1 3d3d df94 933d 96bc 813d 2ab6 42bd
00000150: fb4e 273c d414 003d 1e88 bf3d 7837 00bc
00000160: 2537 71bc 1863 7bbc 32ac 91bd 44a6 02bc
00000170: dcb4 473d 373c b33b 9e83 433d 92c0 babc
00000180: 3fe7 6d3d 0a95 fbbc 8246 c4bc ab7c a83d
00000190: 2a79 b1bc 694f 4dbd 18e7 a2bc 2b27 61bd
000001a0: b4b3 79bd 316b 84bc fec9 bc3b 2cd0 963d
000001b0: cd2e 883d d1f2 51bc 6359 72bd 2cdd 493d
000001c0: 0377 3c3d 74f0 39bd 6890 6dbd 8536 cbbc
000001d0: 9410 3abd 9914 30bd 2944 c1bd b81a 343b
000001e0: 0915 04bd 0857 0d3c cced 1e3d 6db7 463d
000001f0: 3534 883b 14e0 b13d a354 0d3d 0e72 823d
00000200: 39c1 543d 21be 533d 63d7 a53d 0d5a fe3c
00000210: 60b0 593c da8a ce3c dbee ffbc 1f67 833d
00000220: 924c 823c f32f da3d 8f9d 06bd 3741 e2bc
00000230: 3db8 9e3d 968d 61bd 24f9 2dbd 292a 473d
00000240: ee65 dabd 3b97 db3c 813d 9e3c 0c8f c93d
00000250: dd5a 833d 9857 79bd 30bb 12bb 1ac4 80bd
00000260: c56b 98bd 2688 dcbb ba2a 83bd cb07 8abc
00000270: 60e0 14bd a716 85bd cb4c ab3d 048c 903d
00000280: 5edb 29bc 6c31 2f3d 58ba 63bd b367 3d3d
00000290: 1416 db3c 7e94 223c 1790 393d c44b 963d
000002a0: 03bf 873c c805 b8bc 6a95 69bc 06c6 8e3d
000002b0: 6ae2 3dbd 2984 bebd 6b4e 393d 901b 2ebd
000002c0: cb0f 28bc c595 62bd 5e81 ffbb 761c a5bc
000002d0: c713 603d 76d5 8c3d 95e0 733d 3896 4f3c
000002e0: f073 acbd c5d6 53bd 20b2 aabb 79b5 94bd
000002f0: 475b 933d a390 37bd bb4b 38bb 7c33 9a3b
00000300: 26d9 e6bc 593c 053b 6d17 74bc 6ed2 79bd
00000310: f299 0e3c cb56 973c 7cab 89bc 698b 003d
00000320: c5df 36bd 58d1 17bd 1fb2 14bd 1dde b8bd
00000330: 9b91 263d 4fce 923c b84e f7bc c318 86bd
00000340: 5ab1 943d 9484 13bd ed4f ae3d 441f f13c
00000350: b1fb e3bd e99a 9abd 38ed 623c 4b4a 54bd
00000360: 0116 a13d ad86 8f3c 5248 af3b 78e4 5e3c
00000370: 4ad4 543d 588a 893c b1fe 69bd 6d26 d63d
00000380: fddf 82bd 7c03 adbd 3a6e 923d cfe8 6bbd
00000390: 1ddb 65bd 1d4d c3bc 2193 70bd 4ff8 453c
000003a0: e6cb bdbd 8ce0 253c 54f5 0c3d ebdb f6bc
000003b0: 0c1a a03b 790a b93d b395 ac3d e380 933a
000003c0: 8135 813d f35f 8cbc 6cbb 91bb cde8 853d
000003d0: bc1c 3fbd d733 3fbd f220 643d 2eaf aa3d
000003e0: e886 2f3d b86a 923d db7b b03b 24b7 02be
000003f0: 13bf 5b3d 6f9a 843d c481 813d 18ea f7bc
-0.043226365 -0.064441025 0.08925165 0.006986192 0.047716305 0.049932357 -0.029660644 -0.07850041
-0.025900124 -0.022321692 -0.078123674 0.081706606 -0.07353017 -0.0069422717 -0.032680072 0.0049861716
-0.07051097 -0.05233538 -0.06566379 0.032266356 0.03047951 -0.0011029954 0.019307537 -0.026839761
-0.10916362 0.043680627 0.03739495 -0.034933213 0.02397486 -0.06268534 -0.037154216 -0.020936947
0.069296665 0.080168545 -0.04618013 -0.07002766 0.0103997355 -0.09150966 -0.0547599 -0.04624739
0.046505842 0.071355484 0.01148662 0.00046917555 -0.0565065 0.011399673 0.037900794 -0.017355446
-0.02734912 -0.03380399 -0.007404147 0.032182448 0.044820942 0.017745733 0.054271944 -0.007910734
0.052906346 -0.04779609 -0.029873239 0.055422243 0.034648538 -0.03594834 -0.013291444 0.026502552
0.0591563 -0.021111038 0.037183654 0.029015206 0.016822401 -0.013680624 0.014899613 0.008819839
-0.029395767 0.043362886 0.037739027 0.019707035 0.03684327 -0.04920032 0.098923065 -0.0031990313
0.046311464 0.07206129 0.06334798 -0.047537006 0.0102117015 0.031269863 0.09352134 -0.007825725
-0.01472262 -0.01534345 -0.07112922 -0.007974211 0.048756465 0.0054698247 0.04773294 -0.022796903
0.05808186 -0.030710716 -0.023959402 0.082269035 -0.02166422 -0.05012456 -0.019885585 -0.054968994
-0.060962394 -0.016164394 0.005761384 0.073639244 0.066495515 -0.01281424 -0.059167277 0.04928319
0.046011936 -0.04539533 -0.057999045 -0.02480627 -0.045425966 -0.042988393 -0.09436829 0.0027481746
-0.032246623 0.008626707 0.038801 0.048514772 0.004156614 0.08685318 0.034504544 0.063694105
0.051942084 0.051694993 0.080977224 0.031048799 0.01328668 0.025212694 -0.031241825 0.06416153
0.015905652 0.10653677 -0.032865103 -0.027618987 0.077499844 -0.055066667 -0.042473927 0.04862419
-0.10663973 0.02680551 0.019316437 0.09841737 0.06413815 -0.06087455 -0.0022389404 -0.062874034
-0.074424304 -0.0067300973 -0.06404634 -0.01684942 -0.036346793 -0.06498461 0.083642565 0.07057956
-0.010367243 0.04277174 -0.055597633 0.046241473 0.026743926 0.009923099 0.04530343 0.0733867
0.016570574 -0.022463694 -0.0142568145 0.06971364 -0.046358503 -0.09302551 0.0452408 -0.042506754
-0.010257672 -0.055318613 -0.007797404 -0.020155173 0.05470636 0.06876652 0.05954035 0.012670092
-0.08420551 -0.051718492 -0.0052092224 -0.07261176 0.07195144 -0.04481567 -0.002812131 0.0047058444
-0.028179716 0.002033016 -0.014898163 -0.060991697 0.008703696 0.018474003 -0.016805403 0.031382952
-0.044646997 -0.03706488 -0.036302682 -0.0902674 0.040666204 0.017920641 -0.030188903 -0.06547692
0.072603896 -0.03601511 0.085113384 0.029433854 -0.11131991 -0.07549078 0.013850503 -0.051828664
0.07865525 0.017520273 0.0053491974 0.013604276 0.051960267 0.0167896 -0.05712766 0.10456548
-0.063903786 -0.0844793 0.0714993 -0.05759507 -0.056117166 -0.023840481 -0.058734063 0.012083127
-0.09267406 0.010124337 0.03441365 -0.030134162 0.0048859175 0.090352006 0.0842699 0.0011253621
0.06309033 -0.017135596 -0.0044473913 0.06538544 -0.046658263 -0.046680298 0.05569548 0.08334194
0.042853266 0.07149261 0.0053858585 -0.12765175 0.05364902 0.06474768 0.06323579 -0.030262992
